…
max_pooling_num: 16
leraning_rate: 0.0004
drop_out_rate: 0.30000000000000004
Score: 0.8148148059844971
Trial summary
Hyperparameters:
filters: 256
max_pooling_num: 18
leraning_rate: 0.002
drop_out_rate: 0.5
Score: 0.8101851940155029
Trial summary
Hyperparameters:
filters: 256
max_pooling_num: 16
leraning_rate: 0.0008
drop_out_rate: 0.1
Score: 0.8101851940155029
None
Model: "sequential"
_________________________________________________________________
Layer (type)                 Output Shape              Param #   
=================================================================
conv1d (Conv1D)              (None, 3000, 32)          352       
_________________________________________________________________
max_pooling1d (MaxPooling1D) (None, 500, 32)           0         
_________________________________________________________________
conv1d_1 (Conv1D)            (None, 500, 32)           10272     
_________________________________________________________________
max_pooling1d_1 (MaxPooling1 (None, 83, 32)            0         
_________________________________________________________________
dropout (Dropout)            (None, 83, 32)            0         
_________________________________________________________________
flatten (Flatten)            (None, 2656)              0         
_________________________________________________________________
dense (Dense)                (None, 128)               340096    
_________________________________________________________________
dense_1 (Dense)              (None, 64)                8256      
_________________________________________________________________
dropout_1 (Dropout)          (None, 64)                0         
_________________________________________________________________
dense_2 (Dense)              (None, 3)                 195       
=================================================================
Total params: 359,171
Trainable params: 359,171
Non-trainable params: 0
_________________________________________________________________
Best model structure: None
2022-04-28 10:33:00.704989: W tensorflow/core/grappler/optimizers/data/auto_shard.cc:656] In AUTO-mode, and switching to DATA-based sharding, instead of FILE-based sharding as we cannot find appropriate reader dataset op(s) to shard. Error: Did not find a shardable source, walked to a node which is not a dataset: name: "FlatMapDataset/_9"
…
